v1/GeneralMillsMLModel_v1.pt (torch, 65231 bytes, 8 tensors)

fc1.weight f4 [100, 100]
0	0xbd98cf13	-0.07461371
1	0x3d7d09d2	0.061776944
2	0xbcde762c	-0.027155958
3	0x3d2e4886	0.042549632
4	0xbd35d3c7	-0.04439142
5	0xbccf5b98	-0.02531223
6	0xbc9bbc14	-0.019010581
7	0x3da5f24d	0.08102856
8	0xbd7adf93	-0.061248373
9	0xbd28ef20	-0.041243672
10	0xbcd4cf6c	-0.025977813
11	0xbda7afd6	-0.08187835
12	0x3bd020e0	0.0063515753
13	0xbdbc032f	-0.09180295
14	0xbc8c6868	-0.017139629
15	0x3d6999ea	0.05703155
16	0x3db93e61	0.09045101
17	0xbd2a6579	-0.041600678
18	0xbda150a6	-0.078767106
19	0xbc591346	-0.013249224
20	0xbd88dd54	-0.0668284
21	0xbd52e3a3	-0.051486623
22	0xbd6dc530	-0.05804938
23	0x3db53b2e	0.08849178
24	0x3d68aa88	0.056803256
25	0xbd398a95	-0.045298178
26	0xbd01ffa7	-0.03173795
27	0x3c8e4824	0.017368384
28	0xbdd58f4d	-0.10427723
29	0x3dc3a26a	0.095524624
30	0xbd03e07b	-0.032196503
31	0x3d1005d6	0.035161816
32	0x3c416e59	0.011806094
33	0x3d07e77c	0.033179745
34	0xbddcea5f	-0.1078689
35	0x3d840588	0.064463675
36	0xbd007650	-0.03136283
37	0xbd96fe93	-0.07372775
38	0x3cdb7d4c	0.026793145
39	0xbd44929d	-0.047991384
40	0xbd8d0db3	-0.068873785
41	0x3d0b57fd	0.03401946
42	0xbcac1594	-0.021006383
43	0xbd7a5bbb	-0.061122637
44	0xbc827da5	-0.015929053
45	0x3dbca6f7	0.092115335
46	0xbd8adcf9	-0.067804284
47	0xbdb10589	-0.08643634
48	0xbd1c99b2	-0.038232513
49	0x3cc8d8a0	0.024517357
50	0xbd61c9eb	-0.055124205
51	0xbd46f03b	-0.048568945
52	0x3dc1cdf5	0.09463111
53	0x3d898ed8	0.067166984
54	0xbd0fe413	-0.035129618
55	0xbd75bc5c	-0.059994087
56	0xbbd9174e	-0.0066250926
57	0x3c442b29	0.011973181
58	0x3d463a44	0.04839541
59	0x3c339bda	0.010962451
60	0x3cc8dba1	0.02451879
61	0x3da727a9	0.081618614
62	0x3d6d1d1c	0.05788909
63	0xbbc71e7b	-0.0060766316
64	0xba90e7a3	-0.0011055361
65	0x3d2dd8f7	0.042443242
66	0x3dbac74e	0.091200456
67	0xbd273d78	-0.040830106
68	0x3d739e94	0.059477404
69	0x3d8e964f	0.06962263
70	0xbd886401	-0.06659699
71	0x3dbde233	0.0927166
72	0x3c83e17b	0.016098728
73	0xbd5ab60d	-0.053396273
74	0x3dbaf6cb	0.09129103
75	0x3cc33c9f	0.023832617
76	0x3db21eaa	0.08697255
77	0x3d94c28d	0.0726367
78	0x3ced2890	0.028950006
79	0xbd67445b	-0.056461673
80	0x3c45ec85	0.012080316
81	0xbd30bf6e	-0.04315131
82	0xbd8db801	-0.069198616
83	0xbd07b6d0	-0.033133328
84	0xbda77e02	-0.08178331
85	0xbb4c99b2	-0.003121954
86	0x3d853004	0.06503299
87	0xb99ae32d	-0.00029542428
88	0xbd08af92	-0.033370562
89	0x3d8986a7	0.06715136
90	0xbda90475	-0.08252803
91	0x3cc00f31	0.023444744
92	0xbd012b8f	-0.03153568
93	0x3d90328f	0.07040893
94	0x3c081d5e	0.008307783
95	0xbd0b7317	-0.034045305
96	0x3c118486	0.008881694
97	0x3db80e31	0.08987082
98	0xbd9dc230	-0.07703054
99	0xbdad6703	-0.084669136
100	0xbdd561ae	-0.104190215
101	0x3d9d7bcd	0.07689629
102	0xbd69a181	-0.057038788
103	0x3a3e5198	0.0007260083
104	0x3d2a372e	0.04155653
105	0xbdd3fcbe	-0.10350941
106	0x3d56ab7e	0.05240964
107	0xbd6d682b	-0.05796067
108	0xbc81bdf2	-0.015837643
109	0xbd87f820	-0.06639123
110	0xbcff72ca	-0.031182665
111	0x3db42107	0.08795362
112	0x3b9e8266	0.004837322
113	0xbdb833ce	-0.08994256
114	0xbcdcba3c	-0.026944272
115	0xbb8c4188	-0.004280273
116	0xbd12597b	-0.035729866
117	0xbd7353d5	-0.05940612
118	0xbdc5d8c2	-0.09660484
119	0x3b858601	0.0040748124
120	0xbc3b62c8	-0.0114371255
121	0xbce35fcb	-0.027755639
122	0x3c695f84	0.014243964
123	0xbdc05d2e	-0.093927726
124	0x3db139d5	0.08653609
125	0x3c8828fb	0.016621104
126	0x3db5860b	0.08863457
127	0xbdbe91ba	-0.09305139
128	0x3d3bd312	0.04585559
129	0xbb462429	-0.0030233955
130	0x3d6ebeb5	0.05828734
131	0x3d1e00a7	0.03857484
132	0x3da2bf0c	0.079465955
133	0x3d941807	0.07231145
134	0x3d6ec48c	0.05829291
135	0x3d494c6f	0.04914516
136	0x3dab1670	0.08353889
137	0xbc868d47	-0.016424788
138	0xbdbb59aa	-0.091479614
139	0xbcd62a76	-0.026143294
140	0x3da5d0e7	0.080964856
141	0xbd0d7ef4	-0.0345449
142	0x3d8112b8	0.063023984
143	0x3b890e20	0.004182592
144	0xbda613da	-0.08109255
145	0xbd5a73a1	-0.05333293
146	0xbd0b93a1	-0.034076337
147	0xbda32f5d	-0.07968018
148	0xbd2b6ffd	-0.041854847
149	0xbd01aa1c	-0.03165637
150	0x3d8f375d	0.069929816
151	0x3db81374	0.089880854
152	0xbcf7f11f	-0.030266343
153	0xbcb86973	-0.02251122
154	0x3db7adce	0.089686975
155	0xbd5d0a60	-0.053964972
156	0xbd4223fc	-0.0473976
157	0x3d4d413c	0.05011104
158	0x3da5a10a	0.080873564
159	0xbc036bfe	-0.008021353
160	0x3d9412e8	0.072301686
161	0xbd9c36c5	-0.07627634
162	0xbd77e9a1	-0.06052554
163	0xbdc92a8c	-0.09822568
164	0xbce7292e	-0.028217878
165	0x3db86042	0.09002735
166	0x3d8d1d6b	0.06890377
167	0x3c5d7a01	0.0135178575
168	0xbc3f102c	-0.0116615705
169	0xbb331240	-0.002732411
170	0xbdb1dc7b	-0.086846314
171	0x3bf608a4	0.0075083543
172	0xbd602d88	-0.054730922
173	0xbd9cce98	-0.07656592
174	0xbd9e9196	-0.07742612
175	0xbd1cb8f7	-0.038262334
176	0x3d7e8c54	0.062145546
177	0xbce788de	-0.028263506
178	0xbd6704d4	-0.05640109
179	0xbdb61de5	-0.08892421
180	0xbdc6495d	-0.09681962
181	0x3bad45ce	0.0052878624
182	0x3d605dc0	0.054776907
183	0x3d9b020e	0.07568751
184	0x3b1d1e3b	0.0023974318
185	0x3d02a0d6	0.031891666
186	0x3d7d5868	0.06185189
187	0xbdcd9284	-0.10037711
188	0x3db518ff	0.08842658
189	0x3bc6bbd1	0.00606487
190	0x3c91198e	0.01771238
191	0xbda4f454	-0.080544144
192	0xbbc13bbc	-0.0058970135
193	0xbd588ddd	-0.052869666
194	0xbc6f4a32	-0.014605092
195	0x3d6e2f87	0.058150794
196	0x3c9c6b95	0.019094268
197	0x3dc44968	0.09584314
198	0xbcdd4d9e	-0.02701455
199	0x3d1e1947	0.038598325
200	0xbd6da583	-0.058019172
201	0xbdac03db	-0.08399173
202	0x3dc08bdd	0.09401677
203	0x3d826225	0.06366376
204	0x3da5b525	0.08091191
205	0x3d33975e	0.043845527
206	0xbda3d4d5	-0.07999579
207	0xbce79908	-0.028271213
208	0x3bc8e130	0.00613036
209	0x3ca5b438	0.020227537
210	0xbdc42522	-0.09577395
211	0x3d918d97	0.07107084
212	0x3da1f549	0.079081126
213	0xbdcb14e0	-0.09916091
214	0xbc5f0868	-0.013612844
215	0x3bbdda80	0.0057938695
216	0x3d564f8a	0.052321948
217	0x3dc9568b	0.0983096
218	0xbc3b2b90	-0.01142396
219	0xbd46a37a	-0.048495747
220	0xbcda2de0	-0.026633203
221	0xbbcb0960	-0.006196186
222	0xbda5a736	-0.080885336
223	0xbd379ee0	-0.04482925
224	0x3d8f47c9	0.06996114
225	0xbc9d5cc0	-0.019209266
226	0xbcbcb260	-0.023034275
227	0x3c037e50	0.008025721
228	0xbd16e064	-0.03683509
229	0x3d3ee8b6	0.04660865
230	0xbc1cb740	-0.009565175
231	0xbce666f8	-0.028125271
232	0x3d98bb55	0.07457606
233	0xbd1f53da	-0.038898326
234	0x3d81e419	0.06342334
235	0x3d6cba5e	0.05779492
236	0x3a58c400	0.00082689524
237	0xbc4aab28	-0.012369908
238	0xbd2ef497	-0.042713728
239	0xbcae8b78	-0.021306738
240	0xbd1ebb30	-0.038752735
241	0xbbd8b160	-0.0066129416
242	0xbc7d93c0	-0.015477121
243	0x3da93061	0.08261181
244	0xbce3edc0	-0.027823329
245	0x3c257190	0.010097876
246	0xbd850d8d	-0.06496725
247	0x3c5f4f40	0.0136297345
248	0x3da483d1	0.080329545
249	0xbd7ea400	-0.06216812
250	0x3d6019ea	0.054712214
251	0xbd80102a	-0.06253083
252	0x3db68f09	0.089140005
253	0xbda7ab78	-0.08187002
254	0x3d8190eb	0.06326469
255	0x3d81dab5	0.06340543

fc1.bias f4 [100]
0	0xbc565245	-0.013081138
1	0xba6f105e	-0.00091195654
2	0x3d8b78e2	0.06810166
3	0xbcf36a8c	-0.029713891
4	0xbc7c2221	-0.015388996
5	0x3e40e211	0.18836237
6	0x3ce5c35f	0.028047262
7	0x3e674fa9	0.22588982
8	0x388f3f70	6.8305875e-05
9	0xbb945c13	-0.0045275777
10	0x3b4f7603	0.0031656034
11	0xbdae29cb	-0.08504065
12	0x3ddf1e8a	0.10894497
13	0xbc528622	-0.012849363
14	0xbdb8cd57	-0.090235405
15	0x3d2d0907	0.042244937
16	0x3d5ec760	0.054389358
17	0x3e22dcd0	0.15904546
18	0x3d43a77c	0.047767147
19	0xb97c7319	-0.0002407547
20	0xbd3a82c0	-0.04553485
21	0xba5f40d2	-0.0008516434
22	0xbc8c155e	-0.017100032
23	0x3e9495c8	0.29020524
24	0xbd5caa91	-0.053873602
25	0x3e89dee1	0.26927856
26	0xbd51ccfa	-0.05122087
27	0xbb2d4291	-0.0026437382
28	0xbc87624d	-0.016526366
29	0xbdb64673	-0.08900156
30	0x3e00abd2	0.12565544
31	0x3da61c52	0.081108704
32	0xbd2d5323	-0.042315613
33	0xb75fa338	-1.3329838e-05
34	0xbda6969b	-0.081341945
35	0x3911ae79	0.00013893274
36	0xbd6a5c02	-0.05721665
37	0x3e4ac707	0.19802485
38	0xbd4c971d	-0.0499488
39	0x3db5ed15	0.088831104
40	0xbda906ed	-0.08253274
41	0xbce9bb60	-0.02853173
42	0xbdae288d	-0.08503828
43	0xb9c0008e	-0.00036621507
44	0xbb7f8753	-0.0038990572
45	0x3eb2da9f	0.3493242
46	0xbdc023bc	-0.09381816
47	0x3da2bc54	0.07946077
48	0x3e02d328	0.12775862
49	0xbd815705	-0.06315426
50	0xbdb1dd12	-0.08684744
51	0x3e5fdf1a	0.2186245
52	0xbdb8be28	-0.090206444
53	0x3daa71fb	0.08322521
54	0x3eb96ce6	0.36215895
55	0x3d906424	0.0705035
56	0x3e9f5622	0.31120402
57	0x3edd1b8d	0.43185082
58	0x3ec08500	0.3760147
59	0x3e58bcea	0.21165815
60	0xbd22d5bc	-0.039754614
61	0x3e96de83	0.29466638
62	0xbc2ab64e	-0.010419441
63	0xbb47470f	-0.0030407344
64	0xba4d3722	-0.0007828345
65	0xbd0f02c1	-0.034914736
66	0x39a9b37b	0.00032367915
67	0x3e1d65c8	0.15370858
68	0xbd7477c0	-0.059684515
69	0x3d2b512c	0.04182546
70	0xbd72b124	-0.059250966
71	0x3e228416	0.158707
72	0x3dc87e2e	0.09789692
73	0xbdc31287	-0.09525018
74	0x3d3f5fdd	0.04672228
75	0x3e60f350	0.21967816
76	0xbd718472	-0.0589642
77	0x3e9d8882	0.3076821
78	0x3e8a16d8	0.26970553
79	0xbd83e5c0	-0.06440306
80	0x3e3a9d91	0.1822417
81	0xbdb03e32	-0.08605613
82	0xbd7e21a3	-0.062043797
83	0x3e521f3e	0.2051973
84	0xbc646740	-0.013940632
85	0xbd4c9e0d	-0.049955416
86	0x3d178139	0.03698847
87	0xb921f143	-0.00015444033
88	0x3e802e56	0.25035352
89	0x3eaffe57	0.34373733
90	0xbc319d64	-0.0108407475
91	0x3ec268c7	0.37970564
92	0x3ee7cb92	0.452725
93	0x3db8cf6d	0.09023938
94	0xb95091e8	-0.0001989078
95	0xbd9d8248	-0.07690865
96	0xb9051afd	-0.00012693922
97	0xbd1ff4e2	-0.039051898
98	0x3e9bf921	0.30463508
99	0xbdcbce0d	-0.099514104

fc2.weight f4 [50, 100]
0	0x3dab81da	0.083743766
1	0x3ba72afd	0.00510156
2	0xbb240010	-0.0025024451
3	0xbda0f703	-0.07859614
4	0xbd764d02	-0.060132034
5	0x3d0f01db	0.03491388
6	0xbd2f37ea	-0.042777933
7	0x3cbfc4dd	0.023409301
8	0x3db505d0	0.08838999
9	0xbc1196bc	-0.0088860355
10	0xbca3e3a3	-0.020006007
11	0x3bde35e4	0.0067813266
12	0x3d5ac913	0.053414416
13	0x3deac98f	0.114642255
14	0x3cac55a3	0.021036929
15	0xbb89f19e	-0.004209711
16	0xbd951c05	-0.07280735
17	0x3d3463e2	0.04404057
18	0x3cbaa5ed	0.022784198
19	0x3d2b24e3	0.041783225
20	0x3d80e62b	0.06293901
21	0x3da63996	0.081164524
22	0xbd841b5e	-0.064505324
23	0xbdc471ea	-0.0959204
24	0x3db4e3d5	0.08832518
25	0x3d8f8f88	0.07009798
26	0x3dbf03e9	0.09326918
27	0x3cffa3ed	0.031206096
28	0xbd4315a1	-0.04762805
29	0xbd41c602	-0.047307976
30	0x3d87ab5d	0.06624482
31	0x3dba1c25	0.090873994
32	0xbc844efa	-0.01615094
33	0x3d4b49dc	0.049630985
34	0xbdc2ee59	-0.095181175
35	0xbd07840f	-0.033084925
36	0x3cc7b33f	0.024377463
37	0xbd19bd3e	-0.03753399
38	0xbc4482e8	-0.011994101
39	0xbd69f6ec	-0.05712025
40	0x3d5c4105	0.053772945
41	0x3a71e280	0.00092271715
42	0x3dc80429	0.097664185
43	0x3d524ba6	0.051341675
44	0xbd32c6d0	-0.043646634
45	0xbda34e13	-0.07973876
46	0xbb87f539	-0.004149106
47	0xbc751499	-0.014958524
48	0xbd897d83	-0.067133926
49	0xbd8c2c00	-0.0684433
50	0x3da0e7ad	0.07856689
51	0x3db1eb65	0.08687476
52	0xbd92f8b9	-0.07176346
53	0xbcad82b7	-0.021180494
54	0x3c268bbb	0.01016515
55	0xbc84fb61	-0.016233148
56	0xbd553c20	-0.052059293
57	0xbd879f19	-0.06622142
58	0x3d834a2d	0.06410632
59	0xbdcce991	-0.10005487
60	0x3d350e32	0.04420299
61	0x3cb56744	0.022143967
62	0x3d68bf3f	0.05682301
63	0xbcad0e96	-0.02112512
64	0x3d178848	0.036995202
65	0x3d8b4b86	0.06801514
66	0x3dcafbeb	0.09911331
67	0xbd64f737	-0.055899825
68	0x3d28e839	0.04123709
69	0xbd39e3c0	-0.045383215
70	0xbcaf25d8	-0.02138035
71	0x3dc243a3	0.09485557
72	0x3d26c02a	0.040710606
73	0xbc8bf6c4	-0.01708544
74	0xbe0eb490	-0.13936067
75	0xbd94dcca	-0.07268675
76	0xbd055ba7	-0.03255811
77	0x3d9267ed	0.071487285
78	0xbdd4951d	-0.103800036
79	0x3bfb3d2c	0.0076672044
80	0xbce3afa9	-0.027793722
81	0xbd8ce9af	-0.06880509
82	0xbd8b1dff	-0.06792831
83	0xbc4040a5	-0.011734162
84	0xbd45f220	-0.04832661
85	0x3b889f70	0.004169397
86	0x3d40a075	0.047028024
87	0xbdc4c0fd	-0.09607122
88	0xbc267d7d	-0.010161755
89	0x3ccfd569	0.025370317
90	0x3d593f00	0.053038597
91	0x3d9f94ae	0.0779203
92	0x3d96f882	0.07371618
93	0xbd922939	-0.07136769
94	0x3d4d4da8	0.050122887
95	0x3cd6ae1f	0.026206074
96	0x3d27cfc0	0.04096961
97	0x3dbd9397	0.09256666
98	0x3d76e4fb	0.060276967
99	0x3bf5c330	0.007500075
100	0xbd22118f	-0.039567526
101	0x3bd0b930	0.0063697323
102	0xbda560c5	-0.08075098
103	0xbdcdf162	-0.10055806
104	0xbce58e1d	-0.028021866
105	0x3d51c054	0.05120881
106	0x3dd4e985	0.10396103
107	0xbd0659dd	-0.032800544
108	0x3c9c0c29	0.019048767
109	0x3da6d3ce	0.08145867
110	0xbd0ee585	-0.034886856
111	0x3dc021b2	0.09381427
112	0x3b58638f	0.0033018326
113	0x3e3fb47e	0.18721196
114	0x3dc331f6	0.09531014
115	0x3d0268be	0.03183817
116	0x3c7ddd77	0.015494696
117	0xbdb2e694	-0.087353855
118	0x3d993f5f	0.0748279
119	0x3db56c03	0.08858492
120	0xbd530b96	-0.05152472
121	0x3d58c13e	0.052918665
122	0xbd47e42b	-0.048801582
123	0x3d22cc64	0.039745703
124	0xbdcf573a	-0.10124059
125	0x3d9bf782	0.07615568
126	0x3d56ed56	0.052472435
127	0xbc097962	-0.008390756
128	0xbdcbb12d	-0.09945903
129	0x3b7a6afe	0.0038210745
130	0xbdabf65d	-0.083965994
131	0x3daf7587	0.085673384
132	0xbc746ead	-0.014918965
133	0xbdab8e83	-0.08376791
134	0x3d8dc004	0.0692139
135	0x3d540601	0.05176354
136	0xbc8877d6	-0.016658705
137	0x3a748f50	0.00093292166
138	0xbca09a54	-0.01960484
139	0xbd25ed26	-0.040509365
140	0xbc8588db	-0.01630061
141	0x3d376836	0.044777118
142	0xbd7450aa	-0.05964724
143	0x3d2dcdf2	0.042432733
144	0x3deff715	0.11717049
145	0xbda0da65	-0.078541555
146	0xbd453e59	-0.048155162
147	0x3d9320f3	0.07184019
148	0xbda1bc36	-0.078972265
149	0x3cf39f7c	0.029739134
150	0x3c5fc4d0	0.013657764
151	0xbca44d3d	-0.020056361
152	0xbcb71f97	-0.02235393
153	0x3ce26e61	0.027640523
154	0x3d15e6a0	0.036596894
155	0xbd762d58	-0.060101837
156	0xbd8c01d0	-0.06836283
157	0xbcfe8232	-0.031067941
158	0xbd513374	-0.05107446
159	0xbdb80667	-0.08985596
160	0xbd528c04	-0.05140306
161	0xbcf16b19	-0.029470013
162	0xbd13c039	-0.03607199
163	0xbd83da30	-0.064381
164	0xbd3b2896	-0.045693003
165	0x3d988bdb	0.0744855
166	0xbccb018c	-0.024781011
167	0xbcb1a316	-0.02168421
168	0xbdc32dc0	-0.095302105
169	0xbbdc2a44	-0.0067189056
170	0x3d519a91	0.051172797
171	0xbd964375	-0.07337085
172	0x3c9b4aad	0.018956507
173	0x3cbe4ecc	0.023230933
174	0xbd9882cd	-0.07446823
175	0x3d012337	0.031527724
176	0xbd817f89	-0.063231535
177	0x3ccf25e3	0.02528662
178	0x3d9320c3	0.07183983
179	0x3c423a30	0.011854693
180	0x3d9e8b8b	0.077414595
181	0xbdf2e107	-0.11859327
182	0x3c6db8ec	0.014509421
183	0x3d4aceb2	0.049513526
184	0xb9f1cc2f	-0.0004611923
185	0xbdbac0e1	-0.0911882
186	0x3db14e49	0.0865751
187	0xbdc096a0	-0.094037294
188	0x3d45419a	0.048158266
189	0x3d1c58ca	0.038170613
190	0x3d4203a8	0.047366768
191	0x3d762744	0.06009604
192	0x3d464a96	0.048410974
193	0x3d5db9be	0.054132216
194	0xbd3788af	-0.044808086
195	0x3b3efe8e	0.0029143426
196	0xbdc06328	-0.093939126
197	0xbdaf585a	-0.085617736
198	0x3d013bf2	0.03155131
199	0x3ca17b5f	0.019712148
200	0xbdc5d76a	-0.096602276
201	0x3d35d5e0	0.04439342
202	0xbd4e4447	-0.050358083
203	0x3d21c672	0.039495893
204	0xbcdc1b05	-0.026868353
205	0x3d5bd685	0.05367138
206	0xbc32e27d	-0.010918257
207	0xbd710ba1	-0.05884898
208	0xbd920498	-0.071297824
209	0xbdc4166f	-0.09574591
210	0xbcc8ed07	-0.024527086
211	0xbc9fc8e9	-0.019504981
212	0x3c89d094	0.01682309
213	0xbca94de4	-0.020667024
214	0x3ca869d6	0.020558279
215	0xbdb17be8	-0.08666211
216	0x3d32dc77	0.043667283
217	0xbdb8d475	-0.09024898
218	0x3db7a3cb	0.08966788
219	0xbd3d115d	-0.046159137
220	0x3da6a4b3	0.08136883
221	0xbdb87f7e	-0.09008692
222	0xbc90e408	-0.017686859
223	0xbd4aa8e9	-0.04947749
224	0x3ce2a5b1	0.027666898
225	0x3cf2d796	0.029643815
226	0x3bfbeef6	0.0076883985
227	0x3dd0c114	0.10193077
228	0x3d9b2a2f	0.07576405
229	0xbdaacd08	-0.08339888
230	0xbc45fdc3	-0.012084427
231	0x3db64bc7	0.08901172
232	0xbd9d0512	-0.07666983
233	0xbd827f85	-0.06371979
234	0x3d1e6c63	0.038677584
235	0x3ce55c85	0.027998218
236	0xbd9fdf4b	-0.07806262
237	0x3a3126c2	0.00067577895
238	0xbca9a52c	-0.020708643
239	0x3db83d1a	0.08996029
240	0x3da152d0	0.07877123
241	0xbd0caf24	-0.034346715
242	0xbd43774d	-0.047721196
243	0xbbd95670	-0.0066326186
244	0xbd531851	-0.05153686
245	0x3de8c41f	0.11365532
246	0x3d6d4443	0.057926428
247	0xbd332d2d	-0.043744255
248	0xbd849b90	-0.06474984
249	0xbb58d0c0	-0.003308341
250	0x3d31edde	0.04343974
251	0xbd070d27	-0.032971527
252	0xbd952f78	-0.072844446
253	0x3dc6450b	0.09681138
254	0x3be64e77	0.0070283967
255	0x3d6b6cf8	0.057476968

fc2.bias f4 [50]
0	0xbc9deee5	-0.019278953
1	0xbd50a535	-0.050938804
2	0x3d906ed4	0.07052389
3	0xbdb1172d	-0.086469986
4	0xbd9c5f3f	-0.07635354
5	0x3d82bfca	0.06384237
6	0xba827bda	-0.0009955124
7	0x3c9a2172	0.018814776
8	0x3ced1735	0.02894173
9	0xbdcb6c6b	-0.099327885
10	0xbda7bd43	-0.08190396
11	0xbd0721b9	-0.032991145
12	0x3cb763dc	0.022386484
13	0xbbaab6ac	-0.0052097645
14	0x3da72f75	0.081633486
15	0x3dd74348	0.1051088
16	0xbd10a738	-0.035315722
17	0x3d5d591e	0.054040067
18	0xbda15205	-0.07876972
19	0x3d53dd95	0.05172499
20	0xbdc3d8fa	-0.09562869
21	0x3d16ebe2	0.03684605
22	0x3d7fc368	0.062442213
23	0x3d9a3bf4	0.075309664
24	0xbd8a8126	-0.06762914
25	0xbd9787ee	-0.073989734
26	0xbd657acb	-0.056025308
27	0x3d78a9f7	0.060708966
28	0xbc58046f	-0.013184651
29	0x3db09fb1	0.08624209
30	0xbc1d1c08	-0.009589203
31	0x3c8897bb	0.016673913
32	0xbd509f8b	-0.050933402
33	0xbd49d190	-0.04927212
34	0x3d87636d	0.06610761
35	0x3dc8c6c9	0.0980354
36	0x3d37fb4f	0.0449174
37	0x3e469ac9	0.19394983
38	0x3dd1e57d	0.102488495
39	0x3d6c49c6	0.057687543
40	0xbc97820d	-0.01849463
41	0xbc4ed0c0	-0.012623012
42	0xbd8291f2	-0.06375493
43	0xbd966d13	-0.07345023
44	0xbd8b2018	-0.06793231
45	0x3d66226b	0.056185167
46	0x3d551b70	0.05202812
47	0xbbfe4dac	-0.007760724
48	0xbd03b7c4	-0.032157674
49	0x3d8db82a	0.06919892

fc3.weight f4 [10, 50]
0	0x3ccb4cf5	0.02481697
1	0xbd05bfe2	-0.032653697
2	0x3dd7729e	0.10519908
3	0xbe9df4df	-0.30850884
4	0xbc1f3f00	-0.00971961
5	0x3d8c1b10	0.06841099
6	0x3dea4240	0.114384174
7	0xbc96c1ac	-0.018402897
8	0x3d918f78	0.071074426
9	0x3dbdeae3	0.09273317
10	0xbe0fcc5d	-0.14042802
11	0xbde94cb2	-0.113915816
12	0xbe6e50c6	-0.23273
13	0xbdca9502	-0.09891702
14	0x3bf01890	0.007327147
15	0xbd9d33dd	-0.07675908
16	0x3da25f30	0.07928312
17	0x3cb18b28	0.0216728
18	0xbf407419	-0.7517715
19	0xbc92bc14	-0.017911948
20	0xbdc92bec	-0.098228306
21	0xbe9619da	-0.29316598
22	0xbe4bbe77	-0.19896875
23	0x3ddb5faf	0.107116096
24	0x3dc6c3d6	0.097053215
25	0xbefe4b88	-0.49667
26	0xbf2b6d23	-0.66963404
27	0xbe1b62df	-0.15174435
28	0xbe9ec02a	-0.31005985
29	0xbd6fb2d0	-0.05852014
30	0x3bca3bbd	0.006171672
31	0xbea262d8	-0.31716037
32	0xbe1013d9	-0.14070071
33	0xbe00fdeb	-0.12596862
34	0xbe256c2e	-0.16154549
35	0xbe382832	-0.17984083
36	0xbd237452	-0.039905854
37	0x3d92f02e	0.07174717
38	0x3c847fe8	0.016174272
39	0x3cb2c2c8	0.021821395
40	0x3a87059b	0.0010301353
41	0xbd8b9274	-0.06815043
42	0xbda06872	-0.07832421
43	0xbeac5125	-0.33655658
44	0xbdfcd37a	-0.123450235
45	0xbd928800	-0.07154846
46	0xbc8857d0	-0.016643435
47	0xbcc71524	-0.024302073
48	0xbde94f40	-0.11392069
49	0xbdffd37a	-0.12491508
50	0xbdf57987	-0.1198607
51	0x3cc4f43a	0.024042238
52	0x3d39a656	0.045324646
53	0xbdaa2be7	-0.08309155
54	0x3dca17c2	0.09867813
55	0x3e035aa8	0.12827551
56	0x3d673bc6	0.05645349
57	0xbab5c6c3	-0.001386844
58	0xbd4f5861	-0.050621394
59	0xbde1b6a5	-0.11021165
60	0x3d20d120	0.039261937
61	0xbd3a27ab	-0.045447987
62	0x3d60fab2	0.05492658
63	0xbe148cc4	-0.14506823
64	0xbd4ac1ea	-0.049501337
65	0x3e012567	0.12611924
66	0xbd2dabf9	-0.042400334
67	0xbdb3d030	-0.08779943
68	0xbd9749f0	-0.07387149
69	0xbdc9cb0e	-0.09853183
70	0xbd6b587e	-0.05745744
71	0xbcd17caa	-0.02557214
72	0xbe40f290	-0.1884253
73	0x3dba8fe8	0.09109479
74	0x3c2b28b3	0.010446715
75	0x3d2605af	0.040532764
76	0xbcccce28	-0.025000647
77	0xbddeaf70	-0.10873306
78	0x3e10905a	0.14117566
79	0x3d141047	0.036148336
80	0xbddfbf82	-0.10925199
81	0xbe4f2589	-0.20229162
82	0xbdee310f	-0.11630451
83	0x3c456e68	0.012050249
84	0x3d8093ad	0.06278167
85	0x3cf00ad5	0.02930204
86	0xbe025928	-0.12729323
87	0xbd4df586	-0.050282978
88	0x3bcbeb9c	0.006223155
89	0x3e07f7d5	0.13278134
90	0x3de3709e	0.111054644
91	0x3d422c95	0.047405798
92	0x3db45dc3	0.08806946
93	0xbd994c87	-0.074852996
94	0x3e06a271	0.13147904
95	0xbdd114d9	-0.102090545
96	0x3df55079	0.119782396
97	0x3e0f0206	0.13965616
98	0xbd2c3929	-0.0420467
99	0x3d050941	0.03247953
100	0xbdea7f43	-0.114500545
101	0x3dc2e824	0.095169336
102	0x3d5e5b83	0.05428649
103	0xbce7c374	-0.028291442
104	0x3d8892a3	0.06668594
105	0x3d767e49	0.06017903
106	0xbe0e583e	-0.13900849
107	0x3dfa756d	0.122294284
108	0x3d10f329	0.035388146
109	0x3d9a76c5	0.07542185
110	0x3c135df0	0.008994564
111	0x3e109229	0.14118256
112	0xbe22bf55	-0.158933
113	0xbdf48392	-0.119391575
114	0x3d93e79a	0.07221909
115	0x3d1d36d9	0.038382385
116	0xbf10d829	-0.56579834
117	0x3dbd0b85	0.09230713
118	0xbde99229	-0.11404831
119	0x3dad1916	0.084520504
120	0xbf267aa8	-0.6503091
121	0xbf371f8e	-0.71532524
122	0xbdea4d54	-0.114405304
123	0xbe07251c	-0.1319775
124	0x3e03d46b	0.12874
125	0xbd9d1975	-0.07670871
126	0xbe33039a	-0.17481843
127	0xbc79fd4d	-0.0152581455
128	0x3c3793b0	0.011204645
129	0x3d694e50	0.05695945
130	0xbd8a8e4c	-0.06765422
131	0xbe65d9c8	-0.22446358
132	0xbc13fd6e	-0.00903259
133	0x3d19c28b	0.037539046
134	0x3da178c2	0.07884361
135	0xbe54c85a	-0.20779553
136	0xbea27cba	-0.31735784
137	0x3c9660bf	0.018356679
138	0xbd0be1fb	-0.03415106
139	0x3d94fbb8	0.07274574
140	0xbb32f37f	-0.002730578
141	0xbf2052da	-0.6262642
142	0xbdcf9d4d	-0.101374246
143	0xbd3ba626	-0.04581275
144	0x3d87f734	0.06638947
145	0xbf7048d5	-0.9386113
146	0xbdb93559	-0.090433784
147	0x3b2143bb	0.002460702
148	0xbe29509c	-0.16534656
149	0xbeeb4980	-0.45954514
150	0xbdd2c175	-0.10290805
151	0x3d84cdb8	0.0648455
152	0xbdb900fb	-0.0903339
153	0x3d7a2012	0.06106574
154	0xbe1a5bf6	-0.15074143
155	0xbd32c578	-0.043645352
156	0x3e102c43	0.14079385
157	0xbdacb9a2	-0.08433844
158	0xbd12efc7	-0.0358732
159	0x3c81f290	0.015862733
160	0x3dc73c2c	0.09728274
161	0x3d3c56e4	0.045981303
162	0x3e0b658b	0.13612954
163	0xbcfe588c	-0.031048082
164	0x3c80c960	0.015721023
165	0xbd56d2b3	-0.052447032
166	0xbde5d9f9	-0.112232156
167	0xbc0d7288	-0.008633263
168	0xbdc431d7	-0.09579819
169	0xbd12440c	-0.035709426
170	0x3d9003d7	0.070319824
171	0xbe34d585	-0.17659576
172	0xbd5db354	-0.0541261
173	0x3de388a7	0.11110049
174	0x3b789a00	0.0037933588
175	0xbe35fc3f	-0.17772005
176	0xbe325951	-0.17416884
177	0x3d023d13	0.031796526
178	0xbe508397	-0.20362698
179	0xbc825d71	-0.015913697
180	0x3d02716f	0.03184646
181	0xbdda59f6	-0.1066169
182	0x39640380	0.00021745078
183	0xbc063090	-0.008190289
184	0xbd0b3c61	-0.03399313
185	0xbb94fb70	-0.0045465752
186	0xbddf046e	-0.10889517
187	0x3e02f0db	0.12787192
188	0xbc4d63a0	-0.0125359595
189	0xbdde07d6	-0.10841338
190	0x3c0eab2e	0.008707805
191	0x3ddf3b92	0.10900034
192	0x3ddb3fe9	0.10705549
193	0xbe246516	-0.16054186
194	0x3b5bbdbc	0.0033529839
195	0xbdb40b0e	-0.08791171
196	0x3de71811	0.11283887
197	0xbd8e6d66	-0.0695446
198	0xbdbbecee	-0.0917605
199	0x3d9f35d9	0.077739425
200	0xbd257b3e	-0.040400736
201	0xbd90f051	-0.07077087
202	0xbdabc642	-0.08387424
203	0xbd3d7258	-0.046251625
204	0xbde1edd4	-0.1103169
205	0xbdea8403	-0.114509605
206	0xbd0502fd	-0.032473553
207	0x3e163ea3	0.14672332
208	0x3dc92578	0.098216
209	0x3c56bea0	0.013106972
210	0xbe027f80	-0.1274395
211	0x3b4ebb6d	0.003154482
212	0xbda0363d	-0.07822845
213	0xbd453af7	-0.048151936
214	0x3cd5e0b7	0.026108129
215	0x3d924a44	0.07143071
216	0xbdc428ea	-0.09578116
217	0xbcdba007	-0.026809705
218	0xbca2e856	-0.019886177
219	0xba76b9f7	-0.0009411866
220	0xbb16328c	-0.0022918312
221	0xbcbf8576	-0.023379069
222	0xbc0f6915	-0.008753081
223	0x3ba38d9b	0.004991246
224	0x3da73d7e	0.081660256
225	0xbdb484e3	-0.08814409
226	0xbddfe8a5	-0.10933045
227	0xbcadc587	-0.021212352
228	0x3db13036	0.08651774
229	0xbe0c60cf	-0.13708805
230	0xbd891d7d	-0.066950776
231	0xbd917cb8	-0.07103866
232	0x3c31dfb6	0.0108565595
233	0xbb910569	-0.004425694
234	0x3d4f01b8	0.05053875
235	0x3ddbd38e	0.1073371
236	0xbd233822	-0.039848454
237	0xbd3dd8e6	-0.04634943
238	0xbd892f43	-0.066984676
239	0x3d979ec9	0.07403333
240	0xbd190ecc	-0.037367627
241	0x3dc83909	0.097765036
242	0x3df31ab7	0.1187033
243	0xbda74182	-0.081667915
244	0x3b1ef408	0.002425434
245	0xbc927cf4	-0.017881848
246	0x3d484722	0.048895963
247	0xbdda29b1	-0.10652483
248	0xbdbc6834	-0.09199563
249	0x34be3a00	3.5432458e-07
250	0xbccec976	-0.025242548
251	0xbe09b642	-0.13448432
252	0xbe02712e	-0.12738487
253	0x3cecfefa	0.028930176
254	0x3df36e16	0.118862316
255	0xbd9e8afc	-0.07741353

fc3.bias f4 [10]
0	0xbdb48be6	-0.08815746
1	0xbd06f3fd	-0.03294753
2	0xbab3a280	-0.0013705045
3	0xbdfd939a	-0.123816684
4	0x3e8e904f	0.27844474
5	0x3c05e781	0.008172871
6	0x3e1d6abb	0.15372746
7	0xbe021bfb	-0.12705986
8	0xbc842c70	-0.01613447
9	0x39a467e1	0.00031357913

fc4.weight f4 [2, 10]
0	0x3e28cdac	0.16484708
1	0xbe63f357	-0.22260796
2	0xbd987f06	-0.07446103
3	0xbe8b00cf	-0.27149054
4	0x3e7dd538	0.24788368
5	0x3f1c66e6	0.6109451
6	0xbda66436	-0.081245825
7	0xbcbad290	-0.022805482
8	0x3f7fd5d1	0.9993563
9	0xbe32caad	-0.17460127
10	0xbe697e56	-0.228021
11	0xbe616cfb	-0.22014229
12	0x3ec5e17e	0.386486
13	0xbe4a18e4	-0.19736058
14	0xbe8e48fe	-0.27790064
15	0xbf4cca18	-0.7999587
16	0x3ef1d5e1	0.4723349
17	0x3e032b24	0.12809426
18	0xbf8e544e	-1.1119478
19	0x3e11203c	0.14172453

fc4.bias f4 [2]
0	0x3d52f166	0.051499747
1	0xbd63ba46	-0.055597566
