GeneralMillsMLModel.pt (torch, 2711 bytes, 6 tensors)

fc1.weight f4 [10, 10]
000000 17 50 4a be 22 2a 41 3e e2 e5 64 be be 5a 18 be
       -0.19757114 0.18863729 -0.22353318 -0.14878365
000010 b4 6c eb bd 24 fc c3 bd 19 35 03 bd 71 db 72 3d
       -0.11495343 -0.095695764 -0.03203306 0.059291307
000020 ea 11 1f 3e fb fc d2 bd 85 e8 10 3d a3 63 3b 3e
       0.15534177 -0.103021584 0.035377998 0.18299727
000030 0a 91 5f 3e 4c 6c c2 3e f1 aa 04 be 58 7e 23 3d
       0.21832672 0.3797325 -0.12955834 0.039915413
000040 9d a1 8b 3e f0 33 63 3e 89 02 65 be 35 5a 7a be
       0.2727174 0.22187781 -0.22364248 -0.24448474
000050 10 3f 47 3e 24 5b e9 3d 4e 51 36 be cd 72 21 3e
       0.1945765 0.11394337 -0.17804453 0.1576645
000060 85 03 35 3e 8c f5 74 be fb d6 87 bd b1 be c0 3e
       0.17677124 -0.23921794 -0.06632801 0.37645486
000070 f3 00 35 3d d0 fd 6a 3e 68 33 69 bd a6 72 30 3e
       0.04419036 0.22948384 -0.05693379 0.17231235
000080 02 8a 89 bd 60 c2 9a bd 00 10 a7 38 20 7d 8c bc
       -0.06715776 -0.07556605 7.966161e-05 -0.017149508
000090 d8 c0 16 3e bf 24 3a be 98 e3 87 be 79 93 ea bc
       0.14722002 -0.1817808 -0.26540828 -0.028634774
0000a0 a0 0d 69 be 1b 8f 0c 3e b6 69 99 be 27 e3 9c 3e
       -0.22759104 0.13726465 -0.29963464 0.30642053
0000b0 02 ca 87 be 23 7f 1b 3e ea 05 fd 3d a8 76 23 3e
       -0.26521307 0.15185218 0.12354644 0.15963233
0000c0 5b 1b bd be 9e 63 ae bd 9f 12 56 3e c2 67 fc 3c
       -0.36934933 -0.08515094 0.20905541 0.030811194
0000d0 9f e2 d8 bd b6 14 23 3e fd 24 43 be 09 86 1f 3e
       -0.105900995 0.1592587 -0.19057079 0.15578474
0000e0 8d c8 31 bd 01 d1 61 3e 49 56 25 3e 76 61 a0 3d
       -0.04340415 0.22052385 0.16146196 0.07831089
0000f0 3b 21 8f be 2c 3f 92 bd 74 56 86 be a0 04 30 bd
       -0.2795504 -0.07140955 -0.26237833 -0.04297316
000100 9b 58 9a be 40 4e eb 3b 49 9d 4a 3e f1 f4 22 3d
       -0.30145726 0.007180959 0.19786562 0.039784376
000110 94 1f f3 bd b2 4c d5 3d f8 e8 24 bc 9d 73 cd 3d
       -0.118712574 0.10415019 -0.01006531 0.10031817
000120 23 d8 a0 bd 1c 1c f8 3c 14 87 0d 3d 14 ad 56 3e
       -0.07853725 0.030286841 0.03455265 0.20964462
000130 85 2d 46 bd 7b 5a ae 3d fd 78 75 bd 81 b9 1d 3e
       -0.048383255 0.085133515 -0.059929837 0.15402795
000140 c6 33 5f be 10 c7 92 3e 3c e3 2a 3d ef 82 37 3e
       -0.21797094 0.28667498 0.041720614 0.17921041
000150 35 70 1f 3d 53 01 28 3e 23 e4 cf bd 6b a8 e1 3c
       0.03892537 0.16406755 -0.101509355 0.027546128
000160 30 b2 d9 bd b9 b4 75 3e 18 64 96 be 38 e7 2e 3e
       -0.1062969 0.23994721 -0.2937324 0.1708039
000170 a1 16 7d bd 4d ce 91 bd a8 7e ca bc 2e af fd 3d
       -0.06178916 -0.07119427 -0.024718598 0.123869285
000180 5e bc 3d 3d 58 1f 96 bc 51 bc 95 bd 2f 80 1e be
       0.04632222 -0.018325493 -0.07311309 -0.15478586

fc1.bias f4 [10]
000000 29 de 83 be 4e aa 04 bc 80 56 57 be 23 5d a2 3e
       -0.25755432 -0.008097244 -0.21029091 0.31711683
000010 ba dd 56 3f 0d 0c 4b 3a b9 09 94 bd 53 5f 9c 38
       0.8393208 0.0007745631 -0.07228417 7.456415e-05
000020 9e 73 75 be 2b 81 30 3f
       -0.23969886 0.68947095

fc2.weight f4 [5, 10]
000000 30 9c db bd 06 0b 1c bd ad 42 2a bc 10 26 2b be
       -0.1072315 -0.03809645 -0.010391873 -0.16713738
000010 40 a8 d9 bd f0 5a ff 3d 34 4b dd 3c 5a 9f 96 3b
       -0.10627794 0.12468517 0.027013399 0.004596633
000020 9f 92 51 be a1 8f 09 be b2 ad 88 bd 95 50 23 be
       -0.20466088 -0.13433696 -0.06673755 -0.15948708
000030 b9 ac 3d bd 48 fe 36 be e5 b0 b5 3e 54 5d 95 be
       -0.0463073 -0.17870438 0.35486522 -0.29172766
000040 af b7 bd bd b6 61 51 bb 87 bf b7 bd 5b 9c d2 3a
       -0.092635505 -0.003194911 -0.08972078 0.0016068326
000050 cf 85 c8 bd db 0d a7 be 6a fb 72 3e 3d 4e 66 be
       -0.09791147 -0.32627758 0.2372872 -0.22490783
000060 63 28 82 be fe 35 0f be ad b2 cc bd 40 28 77 be
       -0.25421438 -0.1398544 -0.09995017 -0.24136448
000070 e0 d2 82 3d a0 5f 80 be a0 13 2b 3e 92 91 80 be
       0.063878775 -0.25072956 0.16706705 -0.2511106
000080 2a 18 9c be 93 e9 a1 3e 92 15 5c 3f 7e d2 c1 be
       -0.30487186 0.31623515 0.85970414 -0.37855905
000090 e4 3b 9c 3c 5d c4 07 be 8f 3b 1d bc fc ef 31 3f
       0.019071527 -0.132585 -0.009596719 0.6950681
0000a0 fd 4a 90 3e 1c 63 ba 3d 90 2a 51 be aa 77 2e 3e
       0.28182212 0.09100935 -0.20426393 0.17037836
0000b0 70 72 8c be 3e e7 61 3e 6e 1e 2e be 1e ee 34 be
       -0.2743106 0.22060868 -0.17003796 -0.1766896
0000c0 10 5b 4a bd 72 ad 3e 3e
       -0.04940325 0.18620852

fc2.bias f4 [5]
000000 c6 3d c2 3e aa 3c c3 3d e9 75 3b 3e 38 3b a9 3f
       0.37937754 0.09533055 0.18306698 1.3221197
000010 8a ce e2 bd
       -0.110745504

fc3.weight f4 [2, 5]
000000 0b c3 83 be 16 8a 14 3e e1 f2 b1 be 52 bd 8f 3f
       -0.25734743 0.145058 -0.34755614 1.1229651
000010 80 a9 76 bb dc 67 03 bf d0 81 ed bd ea 45 ca 3c
       -0.003763765 -0.5133035 -0.115970254 0.02469154
000020 7f 15 af bf 98 fb 87 be
       -1.3678435 -0.26559138

fc3.bias f4 [2]
000000 63 ea 05 3e e9 80 0c 3d
       0.13077693 0.034302626
